Lab 7/pretrained/CNN0.92.pth (torch, 902735 bytes, 8 tensors)

_CNN__conv.0.weight f4 [32, 1, 3, 3]
00000000: fef5 c83e 629c bebe a12d 8b3c c719 933e
00000010: dd7c c9be 57b0 003e 6bd1 a0bb 0ee7 52be
00000020: 7ed0 4d3e dd52 03bf 693a da3e 242b d73d
00000030: 931a 173e c2f5 00be b58d 5ebc ae31 46be
00000040: 7a78 a33d 2676 c73d ff2d fabe 4b35 993e
00000050: c7b6 8f3e 5c78 ee3e 7d3c 95be 4827 07be
00000060: fa1d 753c 956f 2e3e 32fe 9ebe 9832 d1be
00000070: ed5e c83e a56c ce3c 1e9c 933a 4166 573e
00000080: 91a9 57be 54f8 aebe 1d51 40bc 4c00 b73e
00000090: 8a95 8a3e a9a8 08be 5a8f 91be 3d2e cb3e
000000a0: ac07 a2bb bd38 e0be efab b53e d574 043e
000000b0: 81bb 94be 5f7c 6f3e 490b c53e e539 7ebe
000000c0: e467 72be ab09 5fbe bcdf eb3e 416f 0e3e
000000d0: 70a7 2fbf d229 533e 20c2 293d 1965 62bc
000000e0: 0cbe 5a3d 771f b2be b419 a83e 3829 803d
000000f0: 156c d3be 4c9e 8d3e 7245 b03d 974d 643d
00000100: 4d55 ebbe 0c14 d93e a3cd a7be 1788 95bd
00000110: c351 be3e a407 8abe fcc2 8e3d 75c7 703e
00000120: da07 f6be c8b9 aa3e 5bd8 263e 24ea bcbe
00000130: 5542 f23e efec debd f0ff 08be 25ec 833d
00000140: e99b 893d e3e6 dd3d 08b8 973e 1988 8e3e
00000150: 966a a23d 5782 aa3e 9ec0 a43d ac5b 87be
00000160: db01 f6be bf8b dcbe f7c2 f1bd 88f2 c43e
00000170: bada 83be cc02 b03c a466 e33e 0643 e2be
00000180: 6b26 813e 9a2b b13d faf5 abbe 9f96 c1be
00000190: 9e3a d0be fffa 1f3e fa66 3a3e 61b4 093f
000001a0: 3292 9b3e b634 6e3e 6441 3ebe 80d1 e1be
000001b0: 0c81 54be 4aa5 78be e8bb ee3e 8c58 efbd
000001c0: 03a5 d23e d525 8ebe cd7f 2e3d 32d7 383e
000001d0: 3e2d 70be e509 bd3e 04bc bebd 5ed5 c8be
000001e0: c5f4 ac3d db79 dc3e f166 6bbc 5ff7 f9be
000001f0: 238a 21be da4f b03e 306b 43bf a868 883d
00000200: c0cc 4dbe 89c2 98bf 49da bcbe 043c 8d3e
00000210: c5b3 f2be 6a0e abbe 7660 833e e95e a63e
00000220: 877e 403d b682 053e ed17 3dbe 43d8 d63d
00000230: 8dbd 25bd 265d e5bb e1d6 ef3d 3571 093d
00000240: 347a ab3e 2b6c a9be 1752 623e de71 08be
00000250: 8f55 833e 88f9 b4bc 0e84 96be 8273 ab3e
00000260: 3be5 ccbc e75e 8c3e 4175 7b3e aaea 923e
00000270: a8b2 c5be d867 b7bd 0bbb 91bc 8cb6 053e
00000280: f8ed 6dbe b6cc 68be bde0 523e 8584 0bbf
00000290: 6996 3a3e 2114 02bf 7b85 3abf 03bd 99be
000002a0: dbca 2c3e ecf3 d4be 1d5e f33d 49a7 3ebe
000002b0: 893b 033f 4d8f dfbe ff25 7f3d e4d3 07be
000002c0: f312 9c3e a9ed 0fbe c127 29be 289e b13e
000002d0: 3cba 3dbe a7d8 5bbd c375 ca3c bcac 2fbf
000002e0: 4797 5cbf 43d7 b4be b24f 17bf 13e9 43bf
000002f0: 32ed 6ebe dd9e d83d 024c 9ebe f510 cdbe
00000300: 36a2 45be a51e 80bf fa99 36bf ddfe c0bd
00000310: 9b66 1cbf 892c 29bf 7584 ea3b bbb7 b83e
00000320: 1d2c 513e 8e42 24be 45f7 933e 36ac e5be
00000330: 9a83 593e 0e8b 96be d87c 093e c100 efbe
00000340: d46f 11bf 9df0 b9be ae58 36bf 3e5b 3cbf
00000350: ee0e 1e3d cefb 233e 7479 66bd d380 233e
00000360: d81b 46bf 352a 90bf 04a4 28bf 3f66 9d3c
00000370: f4e2 053d e504 1a3e b350 b43e f33a 43be
00000380: 0abd 82be 4f74 a6be 5cbe f4be cc57 d33d
00000390: c224 b93c f8c1 3f3d 5bf5 b93e 6b33 8b3e
000003a0: a35f e53e 298c f1be 9700 77be ca2a 333e
000003b0: 7916 5c3e dc5a 053e 50bb b5be 3dc2 cf3e
000003c0: ec59 b2be 259a e5ba 4934 683e 12a9 5a3e
000003d0: 0e94 6abe 5e36 173e ca63 d83e 9b4f 0f3d
000003e0: 60e5 ed3d 019b 483c 9edb 0fbf 4e17 1ebe
000003f0: 294d 603d 54d5 89be 5369 c6be 711e 9b3e
0.39250177 -0.37228686 0.016989531 0.28730604 -0.39353076 0.12567268 -0.004907777 -0.20595953
0.20099065 -0.51298314 0.42622688 0.10506275 0.14756231 -0.12593749 -0.01358359 -0.19354889
0.079819635 0.09739332 -0.48863217 0.29923472 0.28069136 0.46576202 -0.2914771 -0.13198578
0.01496076 0.17034753 -0.3105331 -0.40858912 0.39134923 0.02519829 0.0011261737 0.210351
-0.21060778 -0.34173834 -0.011738089 0.35742414 0.27067214 -0.13345589 -0.2842968 0.39683715
-0.004944762 -0.43793288 0.35482737 0.12935193 -0.29049304 0.23387288 0.38485172 -0.24826773
-0.23672444 -0.21781032 0.46069133 0.13909627 -0.68614864 0.20621422 0.041444898 -0.013818049
0.0534039 -0.3478963 0.3283211 0.06257862 -0.41293398 0.27659833 0.08606996 0.055738058
-0.45963517 0.42398107 -0.32774076 -0.07301348 0.37171754 -0.26958954 0.06970784 0.23513587
-0.48052865 0.33344865 0.1629347 -0.36897385 0.47316232 -0.10885035 -0.13378882 0.06441525
0.067191906 0.10835054 0.29632592 0.2783821 0.07930486 0.33302566 0.08044551 -0.26437128
-0.4804829 -0.43075368 -0.11804765 0.38466287 -0.25752813 0.021485709 0.44414246 -0.4419176
0.25224623 0.086508945 -0.33586103 -0.37810227 -0.4066972 0.15623091 0.18203345 0.5379086
0.30384976 0.23262295 -0.18579632 -0.44105148 -0.20752352 -0.24281803 0.46627736 -0.11686811
0.4114152 -0.2776324 0.04260235 0.1805084 -0.23454759 0.3692161 -0.09313205 -0.39225286
0.084451236 0.43061718 -0.014367805 -0.48821542 -0.15775351 0.34435922 -0.7633543 0.066605866
-0.20097637 -1.1934367 -0.36885288 0.2758485 -0.47402778 -0.33409435 0.2565953 0.32494286
0.046995666 0.13038144 -0.18466158 0.104904674 -0.040463973 -0.0069996295 0.11710907 0.03355523
0.3349167 -0.33090338 0.22101627 -0.13324687 0.25651214 -0.022091642 -0.29397625 0.33486563
-0.02501165 0.27416155 0.24556448 0.2869466 -0.38612866 -0.089553535 -0.017789384 0.13057917
-0.23235309 -0.22734341 0.20593543 -0.54499084 0.1822144 -0.50811964 -0.72859925 -0.30027017
0.16874258 -0.41592348 0.11883185 -0.18618502 0.5126272 -0.43664017 0.062292095 -0.13264424
0.30483207 -0.14055504 -0.16519071 0.34690976 -0.18528074 -0.053673413 0.024714356 -0.68622947
-0.8616833 -0.35320482 -0.5910598 -0.7652752 -0.2333267 0.10577176 -0.30917364 -0.40052
-0.1930016 -1.0009352 -0.713287 -0.09423611 -0.61094064 -0.6608358 0.0071569034 0.36077675
0.20426984 -0.16041014 0.2889959 -0.4485795 0.21241608 -0.29402965 0.1342653 -0.46680263
-0.5681126 -0.36316386 -0.71229064 -0.73576725 0.038588457 0.16014025 -0.05626817 0.15967111
-0.77386236 -1.126288 -0.6587527 0.019213794 0.032687142 0.1504093 0.3521782 -0.19065456
-0.2553485 -0.3251061 -0.47801483 0.1031948 0.022600535 0.046815842 0.36320004 0.27187666
0.44799528 -0.47177246 -0.24121319 0.17496791 0.21492948 0.13022941 -0.3549447 0.4057788
-0.3483423 -0.0017517252 0.22676195 0.21353558 -0.22908041 0.14766833 0.42263633 0.034988027
0.116160154 0.012243987 -0.56194484 -0.15438578 0.054761086 -0.2692057 -0.3875223 0.30296662

_CNN__conv.0.bias f4 [32]
00000000: a336 c5bd f2b7 d2bb eec1 bcbb 062d 8dbc
00000010: 7cf5 04bd c33a 34bc f169 6d3c e3eb 75bc
00000020: 5e40 c1bc 57b5 013c 004f 9bbd 2fd3 dc3b
00000030: fd37 14bd 4459 4bbe ec1f 533c 1ef9 f2bd
00000040: f30b a33d f43b 743c 79d7 7d3e e822 723d
00000050: ed99 9ebe 961b 9bbe 0e18 a53d cd71 82be
00000060: 2444 66be b6a5 8dbc b2e1 893d aa43 94bc
00000070: 94c8 48bd c013 0cbe 952d d1bb 74d7 69bd
-0.09629562 -0.0064306194 -0.005760423 -0.017233383 -0.032460675 -0.011000338 0.01449059 -0.015009853
-0.023590263 0.00791677 -0.075834274 0.0067390422 -0.036186207 -0.19858271 0.012886029 -0.118639216
0.079612635 0.014906872 0.24789228 0.05911532 -0.3097681 -0.30294484 0.08061229 -0.25477448
-0.22486931 -0.017290931 0.06732501 -0.018098671 -0.04901941 -0.13679409 -0.0063836076 -0.057090238

_CNN__conv.4.weight f4 [64, 32, 3, 3]
00000000: 180f a2bd 0cd6 583b 76c3 583d 36d6 b33b
00000010: f831 9d3d 4711 21bd 0fcd 16bd 07f9 233e
00000020: 7824 c3bd 9c94 95bd d9ce 91be 1a6c 0ebe
00000030: 2c42 b6ba f0b9 d93d 6058 ab3d bef0 563d
00000040: c37c 3d3e 932a 7a3d 2325 b83c d793 eabd
00000050: 6921 fcbb 196e 0c3e 406f d9bc 86c1 b13b
00000060: 3c58 db3d 0693 623d 60d8 093e 1bac b9bd
00000070: 2bb4 65be 416f 06be 92fd f63b 2caa 5d3d
00000080: 129e b43d 4335 723d 2789 383e d338 8b3d
00000090: c376 45bd 34bc b23d 9135 853d 9370 e13c
000000a0: 448e 6abd 0d1a 61bd 2c7b e53d f2af 6bbc
000000b0: 765a 34bc 5bab afbc 1120 06bc bbbf a1bc
000000c0: 47b8 dabc 0d7d 163d 3a93 76bc 28ca 933c
000000d0: 664c 1e3e 0476 38be f96e 4dbd 681c 74bd
000000e0: 9f6d 853c c3db 123c 6cc1 debb ae86 c63c
000000f0: 4ffe 27bd 209e 103e f2a3 a4bd 2713 6dbd
00000100: 27bd 82bd 812f ccbd cf2e 01bb 2c88 2ebc
00000110: 2996 42bc ac40 9d3d 40eb e03d 0e3c 903b
00000120: 6e5a c6bc 5a7c 86bd ab7a 1fbd 8dfb c33c
00000130: 6fee 34bd 19da b93c b3da c2bb 92ce f83d
00000140: 82eb 033d 75c8 b23d 98e9 d23c f967 39bd
00000150: 1cf1 063d 85a9 8abd a1b5 97bc 5b36 2a3c
00000160: 6830 d6bc fa7e 033d 3aaf 843d 7673 f73c
00000170: 6294 c4bc 37d7 953d 01eb 37bd b255 573d
00000180: d7c6 013d a2c6 9abb 993f 2b3d 9e7e 7f3d
00000190: 5071 453d 7200 c5bd 1983 8a3d 5f5d 6bbc
000001a0: f166 88bc e7b0 0bbe 118b 913b 9bdb f23d
000001b0: cedd e4bd 6d1c 3238 c589 afbd 61cd b03c
000001c0: 2ab3 113e 0273 bdba 1fb2 623e bdb8 ba3d
000001d0: cb09 cc3d 71f0 8dbd e0e7 903c 2df8 cf3d
000001e0: 906a b9bd 397c a6bb 3aba 333c 3f18 f53c
000001f0: 2041 9d3e e17a 71be cfc3 5cbd dfc5 35be
00000200: 493f debd f214 85bd e5e5 e13c 2d1d db3d
00000210: e5ef 503d 0ddd 183e 65d3 1fbe 47e8 183c
00000220: 08c5 823c 1e77 1f3c b046 b43d 8f68 bebd
00000230: dedc 273d 5f93 6cbc c372 18bd d764 873c
00000240: 476d b63c 7d86 1bbd cdf2 1abc 296e 4e3d
00000250: 8499 bdbd 3d96 d93c 6347 48bd ae07 af3d
00000260: 85ed 4c3d 2383 893d 9c00 193d 114f 97bd
00000270: b2cb ce3d e922 5cbd 7a01 d7bc 8049 f13c
00000280: fb72 8cbc 54d4 c33c 8fa9 5bbe 4730 02bd
00000290: 3027 cdbd 314f 93bd 5b1a 513e 1e1a 8dbe
000002a0: 0db1 493b 2c21 ef3d 7c1f febd 0356 50bb
000002b0: f1be 61bd c094 393c b2bf 72bc 11e9 8e3c
000002c0: 821b cd3d 997b 2f3d 9735 4f3d bcba dcbc
000002d0: ebf4 46be 8f9a dfbd 2129 90bd 0cf6 81bd
000002e0: 02b3 e53d ac36 28be 535d 1e3e 2b22 b13d
000002f0: 147b 4bbe 71bd 41be e8ae aebd 67a4 20bd
00000300: e32a 53bc 1ec7 be3d d797 65be 6271 273e
00000310: 9d54 1e3d 62c3 1abe 2126 01bd 7733 633d
00000320: 5575 39bd 8518 d93d 2723 013d e42f ca3c
00000330: d4de 06bd 7c7e debd 6c40 593d 35b1 d9bd
00000340: bab9 66be 7d54 d5bd f8e7 46bd 9012 b93d
00000350: c6f5 b7bd 57e1 8fbc 80ff 773e 53d2 43be
00000360: 00e5 65be 0415 f23c c04f 283e b002 f33c
00000370: 45fb 6cbb b11d 55be 80d4 103c ab4e a239
00000380: afff cfbd 43d5 443d 49d6 a2bc 1ab5 67bc
00000390: 6808 e73d e9d8 893c 2304 2ebd 87e2 17be
000003a0: 1cd5 a33c bd74 b43d bb91 d63c dbc8 c7bc
000003b0: b809 90bd a90b c0bc 2c81 c2bc 9a3f 493d
000003c0: 4cba 943c da25 ab3d bba5 ad3c addd 443c
000003d0: 4f65 e23d 217b a6bd 5811 f9bc c4b6 963a
000003e0: 56f1 32bd 3340 8fbd 93de 053e b681 12bd
000003f0: c11b 7cbd 253b 013e fb83 b53a 71c1 9e3c
-0.07913035 0.0033086566 0.05292078 0.0054881824 0.076755464 -0.039323118 -0.036816653 0.16012965
-0.0952844 -0.073037356 -0.28478125 -0.13908425 -0.0013905219 0.10631168 0.083664656 0.052475683
0.18504624 0.06107576 0.022478646 -0.114539795 -0.0076944125 0.13713874 -0.026542306 0.005424681
0.10710189 0.055315994 0.13461447 -0.0906603 -0.2243201 -0.13128377 0.007537552 0.054117367
0.08819212 0.059132826 0.1802107 0.06797948 -0.048208963 0.08727303 0.065043576 0.0275195
-0.05726458 -0.054956485 0.11205134 -0.01438521 -0.011007896 -0.021444013 -0.008186356 -0.019744745
-0.026699198 0.03674035 -0.01504975 0.018040732 0.15458831 -0.1801377 -0.05015466 -0.059597403
0.016287623 0.008963528 -0.00679796 0.024234142 -0.041014012 0.1412282 -0.080390826 -0.057879593
-0.06383734 -0.09969998 -0.0019711738 -0.010652583 -0.011876621 0.07678351 0.109823704 0.0044016903
-0.024213042 -0.06566687 -0.038935345 0.02392366 -0.0441727 0.022687005 -0.005946481 0.12148775
0.03220702 0.087296404 0.025746152 -0.04526517 0.032944784 -0.067706145 -0.018519225 0.010388936
-0.026146129 0.032103516 0.06478734 0.030206423 -0.023996536 0.073164396 -0.04490185 0.05257196
0.03168377 -0.004723386 0.0418087 0.06237661 0.048203766 -0.096192256 0.06763286 -0.014365523
-0.016650649 -0.13641702 0.004441627 0.11858293 -0.111751184 4.246498e-05 -0.08571199 0.021582307
0.14228502 -0.0014453831 0.2213826 0.09117267 0.09962805 -0.06930626 0.017688692 0.10154758
-0.09053528 -0.0050807265 0.010969693 0.029918788 0.3071375 -0.23582031 -0.053897675 -0.17751263
-0.108519144 -0.064981356 0.027575443 0.10698924 0.05101003 0.14928074 -0.15607984 0.009332723
0.015963092 0.00973299 0.08802545 -0.09297287 0.04098212 -0.014439433 -0.03721882 0.016527576
0.022268904 -0.037970055 -0.009457302 0.050398026 -0.092577964 0.026560897 -0.048896205 0.08546387
0.050031204 0.067144655 0.037354097 -0.073881276 0.100974455 -0.05374423 -0.026245821 0.029453993
-0.01714467 0.023904957 -0.214514 -0.031784322 -0.1001724 -0.07192839 0.2042021 -0.27558988
0.0030775697 0.11676249 -0.12408349 -0.0031789548 -0.055113737 0.011326969 -0.014816212 0.01744512
0.10015012 0.04284248 0.050588217 -0.02694451 -0.19429366 -0.109181516 -0.07039095 -0.06345758
0.11215784 -0.16427106 0.15465288 0.08649095 -0.1987117 -0.18919922 -0.085294545 -0.039219286
-0.012888643 0.09315322 -0.22421204 0.16351846 0.038654912 -0.15113595 -0.031530503 0.055469003
-0.045277912 0.1060038 0.031527665 0.02468104 -0.03292735 -0.10863969 0.053039953 -0.10629503
-0.22531787 -0.104165055 -0.048561066 0.09036744 -0.089824244 -0.017563505 0.2421856 -0.19123201
-0.22450638 0.029551037 0.16436672 0.029664367 -0.003616051 -0.20812108 0.008839726 0.0003095766
-0.1015619 0.048054945 -0.01987757 -0.014142299 0.112809 0.016827064 -0.042484414 -0.14832507
0.01999908 0.088113286 0.026192537 -0.024387768 -0.07033104 -0.02344306 -0.023743235 0.04913292
0.01815524 0.08356829 0.02119719 0.012015742 0.11054479 -0.08128954 -0.030403778 0.001149856
-0.043687187 -0.06994667 0.13073187 -0.035768233 -0.061549906 0.12620218 0.0013848537 0.01937935

_CNN__conv.4.bias f4 [64]
00000000: 0973 3cbe 7a2a 273e 929b dd3d f078 103f
00000010: daf6 8dba 8c3e cc3d 3688 8b3e 8897 6f3e
00000020: 6b5f 7cbd 4bc0 a4bd f76e 093e 6628 cfbc
00000030: e5f4 d23e 1211 a43d 6b41 95bd da20 bf3d
00000040: a384 a03d 679b 993c 7d79 d83e b2d1 853e
00000050: cbd5 45bd 7cef 093f 9f7b bd3d e849 f73e
00000060: f753 9c3d 773f 353f 8d19 84bd bed6 f33d
00000070: 0ac7 623d e3a3 963e 196c 8fbd 38b1 c43e
00000080: a18e 313d 3af7 843e 4ea3 2d3f a417 803c
00000090: 3ffc 983d 16be 033e 054a f93d 2637 11bd
000000a0: 21b4 823b dabe 3ebd 595c 253e 3230 bfbd
000000b0: 3861 3e3d fc87 673e c1e3 753d 224a b03e
000000c0: 022a 09bd 42aa 2fbd 3e46 013f 190d 963e
000000d0: 97be 55be 8b3c c93e 65dc c7bd c253 c5bc
000000e0: 39a9 c03e 5ae9 d1ba 67b0 1cbd 9c56 47bd
000000f0: 4e97 f43e 5ce4 aabd d596 0fbc 6d7f 4ebe
-0.18403257 0.16324797 0.10820688 0.56434536 -0.0010831014 0.09972867 0.27252358 0.23397648
-0.061614435 -0.080444895 0.13421236 -0.025287818 0.41202465 0.080110684 -0.07287868 0.09332438
0.078377984 0.01875086 0.42280188 0.26136547 -0.048299592 0.5388105 0.092520945 0.48298573
0.076332025 0.70799965 -0.06450186 0.11906193 0.0553656 0.2942191 -0.0700304 0.38416457
0.043348912 0.2596987 0.6782731 0.015636273 0.07469987 0.12865481 0.12172321 -0.035452984
0.003988758 -0.04656873 0.16148509 -0.093353644 0.046479434 0.22610468 0.060031656 0.3443156
-0.033487327 -0.04288698 0.50497806 0.29306868 -0.20873486 0.39304003 -0.09758834 -0.02408779
0.37629107 -0.0016014979 -0.038254168 -0.04866658 0.47771686 -0.08344337 -0.0087639885 -0.20165797

_CNN__dense.0.weight f4 [128, 1600]
00000000: ed28 77bd 1431 813d f568 053d 673e 8ebd
00000010: 0c3b 6f3d 3b15 eebc 97fe 8e3d a184 883c
00000020: 5ef0 dc3a bf01 103d 2689 1fbd 4e9e b2bc
00000030: 9781 043c 762c 2fbb 3f69 0bbd 5800 c13c
00000040: dbdc e33c 5448 dabc 7b19 2abc d479 92bc
00000050: 7ffd a63d 327a dd3c a779 75bd 5cb6 143d
00000060: 83db 59bc bf1f 32bd ac7c 40bd ae7c a7bc
00000070: 3928 b2bd e83b f2bc bec1 95bd 335c b93d
00000080: 36b9 1bbc 95aa 323d be63 013d e21c 19bd
00000090: c6f1 2dbd 8dc0 d0bb 4c84 553c b068 7b3c
000000a0: 6fe9 063d bd69 51bc f27c 0ebd 652b a43d
000000b0: 9a93 35bd 6a90 2d3c 6e4d 573c 3b28 b93c
000000c0: 3935 50bb 765d 583d d2e6 ac3c a105 c93c
000000d0: f372 113d 1fbf 04bc e3c2 103c 031c e73c
000000e0: a58d 943d ae93 70bd bc62 38bd e03c b63c
000000f0: e748 b2bd c506 f93b e1f1 56bc f622 23bc
00000100: 0e57 8ebd 90ad 253c a6c7 73bc 7353 223c
00000110: 755c da3b 35ea 89bd 0897 adbd dec5 2b3d
00000120: 839f e2bc e2cb 4f3d ae38 0fbc 11b1 9ebc
00000130: 3357 ecbc 358f e1bb 4d23 07bd d000 92bc
00000140: 4be9 4fbd 8b0d 963d 0801 3e3d f3af 2fbd
00000150: 2e05 e83b 9343 bebb 317e 0b3d a76a 163e
00000160: ee56 5bbd 0141 e1bc 82d7 213c 3973 4c3d
00000170: a0cb f73d 67ff a93b 58ae 383c 8fa7 06bd
00000180: f4f2 85bb df90 3d3e 3109 04bd e7a6 283d
00000190: d719 ae3c 7fa5 16ba 3148 d5bc 5030 11bc
000001a0: ea0b 7d3d 9b16 043e 7b8c 793d 475c 11bc
000001b0: 2351 ea3c e9dd 923b 7a06 83bc ab79 803b
000001c0: ee70 973c de93 f93b b6ab 5fbb 5083 f43c
000001d0: 5e43 d5bb 375a 5a3d 59f3 3cbd c058 c7bc
000001e0: 8c25 a7bc f895 803d c2c5 4abd 19f3 c0bd
000001f0: 0dcc 78bd ebb6 913d a9cd 5abd 3f07 a43c
00000200: 73a6 b23c db9c 043d 1828 803a a221 7f3c
00000210: 1b63 bd3c 9476 bcbc 5160 353d 3175 13bd
00000220: 4aa7 ff3b 0126 2abc d30f 78bd 19a8 6e3d
00000230: e5dc 3ebd 5d13 9dbb ca93 ba3d cdc1 2dbd
00000240: 7d6e bd3d 867f debd 4b8c 29bc 1d90 7e3d
00000250: b4b4 883c 8a67 4fbb 56f8 263d da6b e03d
00000260: 5abf 333d ad3d b7bc 2520 c23c 819d e73b
00000270: 98ef 7c3c 850d 8f3d b3c1 16bd 8091 96ba
00000280: e30f 2dbe acbf 1abc 593b 903c 52d9 a83c
00000290: 59ea 4ebd b30b f1bd aac8 4bbd 0628 703d
000002a0: 1b23 dc3c d14d 383c 18f1 54be de13 cebc
000002b0: 8ff2 3a3d 2946 dabc f0de c63d 9b83 07bc
000002c0: f069 5dbd 9096 b3bd f581 763c cf35 8d3c
000002d0: 3e40 2cbd e6c6 913d c0e8 32bd b510 11bd
000002e0: 8a65 503d 780d 983d d0f1 cb3b cce9 72bd
000002f0: adf5 883c 90d4 463a a674 413d 42da b8bd
00000300: 5235 b7bd 4390 213d a3e2 02bd f282 2f3d
00000310: 121f 233a e956 a6bd d3fd 3dbc 86e3 38bd
00000320: b1d0 113e 6070 9e3d f9bb 3abd aae7 4d3d
00000330: 2c95 953c 4489 8d3d 81b1 e93c 1175 4e3d
00000340: ada8 f13b 0c21 17bd 7642 2d3d be79 ffbc
00000350: f2d8 493d 3fcd 583d c73a 24bd 0108 bdbc
00000360: 8443 a2bd c196 063d 6ff3 4a3d dc17 4d3d
00000370: a5ad b4bd 43d5 cebc e38d c63d 6c50 c7bd
00000380: f655 963d 4768 64bc 3e32 26bd df9a 68bc
00000390: 9f85 833b cd7f 923d 5017 51bc 97c7 7fbb
000003a0: 458c 01be 56a6 a5ba 236f dc3b a5a3 aebb
000003b0: 010c e4bc 546a a5bc 5928 b63c 85ff 67bd
000003c0: 7468 a0bc 8c3c 963d 4d19 3fbd 3092 8f3c
000003d0: c3ee 11bd 9ace 813c 4106 90bc b409 c3bd
000003e0: 2ff0 a83c e1af 7f3d a90d f93b b04c 3abd
000003f0: a337 2ebd af22 24bd 1f70 843d 7b0d bf3c
-0.060341764 0.06308189 0.032570798 -0.06945496 0.05840592 -0.029062858 0.06982153 0.016664805
0.0016856303 0.035157915 -0.038949154 -0.021804001 0.008087537 -0.0026729382 -0.034035917 0.023559734
0.027815273 -0.026645817 -0.010382052 -0.017880358 0.08153819 0.027035806 -0.05993047 0.036306724
-0.013296965 -0.043487307 -0.046993896 -0.020445194 -0.08699078 -0.029569581 -0.07312344 0.09050789
-0.009504607 0.04361971 0.031589262 -0.03738106 -0.0424669 -0.00637061 0.01303203 0.015344784
0.032937463 -0.012781558 -0.034787126 0.08016089 -0.044330217 0.010593513 0.013141019 0.022602191
-0.0031770004 0.052823506 0.021106157 0.024538817 0.035510015 -0.008102207 0.008835527 0.0282116
0.07253579 -0.05873459 -0.045016035 0.022245824 -0.08705311 0.007599684 -0.013119192 -0.009957066
-0.06950198 0.010112181 -0.014879143 0.009907591 0.006663854 -0.067341246 -0.084760725 0.041936748
-0.027663952 0.050731547 -0.008741541 -0.019371541 -0.028850174 -0.0068835267 -0.03299265 -0.017822653
-0.050759595 0.07326802 0.046387702 -0.042892408 0.0070806956 -0.0058063953 0.034055892 0.14689122
-0.0535497 -0.027496817 0.009878041 0.049914572 0.12099385 0.005187917 0.011272036 -0.03287464
-0.0040878 0.18512295 -0.032235328 0.041174795 0.021252556 -0.0005746707 -0.0260354 -0.008861616
0.06177894 0.12899248 0.06092499 -0.008872098 0.028603142 0.00448202 -0.0159943 0.003920754
0.018486466 0.007616504 -0.0034129447 0.02984777 -0.006508275 0.05330869 -0.046130512 -0.024334311
-0.020403646 0.06278604 -0.049505003 -0.09421367 -0.060741473 0.07114967 -0.05341879 0.020022986
0.021807885 0.03237615 0.0009777574 0.0155719835 0.023118546 -0.023005761 0.044281308 -0.036000434
0.007801925 -0.010385037 -0.060561966 0.05826578 -0.04659738 -0.004793568 0.0911022 -0.04242115
0.092495896 -0.10864167 -0.01034839 0.062149156 0.016687728 -0.0031647407 0.040764175 0.10958071
0.04388366 -0.022368276 0.023696968 0.0070683365 0.015437983 0.069850005 -0.03680582 -0.0011487454
-0.16900592 -0.009445112 0.017606424 0.020611439 -0.05051646 -0.117698096 -0.049751915 0.05863192
0.026872208 0.011249022 -0.20795095 -0.025155958 0.04564148 -0.026644783 0.09710491 -0.008271123
-0.054056108 -0.08768952 0.015045633 0.017237572 -0.042053454 0.07118015 -0.043679 -0.035416324
0.050878085 0.07424444 0.0062238947 -0.059304997 0.01671871 0.0007584775 0.047230385 -0.090260044
-0.08945717 0.03944422 -0.03195442 0.04284949 0.00062225864 -0.081220455 -0.011596161 -0.04513886
0.14239766 0.077362776 -0.04558942 0.05026976 0.018259607 0.06910947 0.028527023 0.050404612
0.007374844 -0.03689675 0.04229971 -0.03118598 0.04927916 0.052930113 -0.040095117 -0.023075106
-0.07923034 0.032858614 0.049548563 0.050071582 -0.088221826 -0.025248175 0.096950315 -0.09732136
0.073406145 -0.013940877 -0.04057526 -0.01419708 0.0040137316 0.07153282 -0.012761906 -0.0039028877
-0.12651165 -0.0012638073 0.0067271157 -0.0053295665 -0.027837755 -0.020192303 0.022236036 -0.056640167
-0.019581057 0.07335767 -0.046654988 0.017525762 -0.03562809 0.015845586 -0.017581107 -0.09523335
0.020622341 0.06242359 0.0076005054 -0.04548329 -0.042533528 -0.04007214 0.06466698 0.023321858

_CNN__dense.0.bias f4 [128]
00000000: 70f0 963e eb95 243e aa70 d1bc b17d 113e
00000010: ebdc 043d 5b33 113e e2f7 e63d 1f67 893e
00000020: eb2a 723e a45c 40bc 0682 723e 7ab9 f5bc
00000030: 8c6f fd3b ee63 1b3c 3a02 fe3d fd54 d63d
00000040: 40f1 fe3d abf4 153e 0438 ad3e 8dd5 42bc
00000050: 9cb8 163e 8cfd 993e 50f9 763e ae4f 973e
00000060: 5534 cc3c fa2b 423e a2ab b33d 9c7c 1c3d
00000070: 0701 6b3e 2d8c fd3d 3b3a 17bd b5c0 5c3e
00000080: 4d26 8c3e 7987 333e 7912 3a3e 573a 983e
00000090: 9699 653e ce93 5f3e 381e 363e c1cf 7c3d
000000a0: 4246 4f3e 6843 f73d 2eb6 093e 0379 073e
000000b0: ab3c 523e 8af9 6e3d cc26 2c3e f03b c23d
000000c0: d8fb 333e 4040 183e 1d2c 323e 55e3 993e
000000d0: 735c 363e 3463 6d3e ab18 823e 0932 203e
000000e0: 241d 8a3e cb30 3f3e 92d9 da3d c36e fe3c
000000f0: 2d6b 6d3e dbf3 de3d 3439 613d c95b ad3e
00000100: 1994 373e 2781 1e3e e3a1 603e 55f9 8e3e
00000110: 8e9a 2a3e bb49 183e aab4 a53d 4458 ebbc
00000120: 1f8e e93d 99ba 203e aecb b23b 0c7f 323e
00000130: 903e 6a3e f837 933d 52c0 bc3e f1db 383d
00000140: d03d d33d ecde 8a3d f850 ef3c c6bf ca3d
00000150: 0a4c 7d3e 31f3 bfbc 68e6 0a3e 8519 493e
00000160: 2d3b c43d 2db9 f7bc d24e ac3d e71e c6bc
00000170: ca08 633e a65a 023e b621 683e 3b2b 4cbc
00000180: 03e9 2b3e 3e3c 003e 2737 1b3e 8491 8d3e
00000190: f35f 763e b7e3 a83e 15ad 553e 151e 773e
000001a0: 7a2d aa3e 4ad9 e33c f8ae 543e 5125 8e3e
000001b0: cf51 393e 9e92 6a3e ee7e d63b 898d 693e
000001c0: 4c7b d53d 58a9 ed3d f8e2 823e d451 65b9
000001d0: 7521 f03d 0a71 723e eeb9 6a3e 903c 7d3e
000001e0: 084d da3d 061f 7b3d b1d1 1a3e 0774 753c
000001f0: d56e fb3d 72a7 0b3e 7639 163e c11b 8e3e
0.29480314 0.16072814 -0.025566418 0.14208104 0.032437246 0.14179747 0.11277749 0.26836488
0.23649184 -0.011740837 0.23682413 -0.029995669 0.0077342447 0.009484274 0.124027684 0.10465429
0.124483585 0.14644115 0.338318 -0.011891735 0.1471886 0.30076253 0.24118543 0.29552978
0.024927298 0.18962088 0.08772971 0.038204774 0.2294961 0.12380252 -0.036920767 0.21557887
0.2737297 0.17532147 0.1817111 0.2973201 0.2242187 0.21833727 0.17784965 0.061721567
0.20241645 0.120734036 0.13448402 0.13229756 0.20530955 0.058343448 0.16811675 0.094840884
0.1757654 0.1486826 0.1739964 0.30056253 0.17808704 0.23182374 0.25409445 0.15644087
0.26975358 0.18670957 0.106860295 0.031058675 0.23185416 0.108863555 0.054986194 0.3385909
0.17927589 0.15478955 0.21936755 0.279246 0.1666052 0.14871876 0.080910996 -0.028728612
0.114040606 0.15696181 0.0054564094 0.17431277 0.22875428 0.071884096 0.3686548 0.045131627
0.10314524 0.067808 0.029213414 0.09899859 0.24736038 -0.023431392 0.13564456 0.19638641
0.095815994 -0.030239666 0.08413471 -0.024184657 0.22171322 0.12729892 0.2266911 -0.012461479
0.16788106 0.1252298 0.15157758 0.27650082 0.24060039 0.32986233 0.20866807 0.24132569
0.3323782 0.027813572 0.2076987 0.27762845 0.18097614 0.22907493 0.006545893 0.22807898
0.10423908 0.116045654 0.25563788 -0.00021869625 0.117251314 0.23675933 0.22922489 0.24730134
0.10659224 0.061308883 0.15119053 0.014981276 0.12276999 0.13638094 0.14670357 0.2775555

_CNN__dense.3.weight f4 [10, 128]
00000000: 18f1 883d e382 923d 98d6 293c 838a ac3d
00000010: 0480 863d d5b1 48be 47e6 50be cb7f 78bd
00000020: 2dab 2ebe 7fee 173c 3036 cd3d 01af 033d
00000030: 451d 413c b7c3 84bd a257 443c 2287 fd3c
00000040: 301b 5a3d 0c5f d7bd 12f9 f6bd d083 8bbd
00000050: c0d2 923d e039 1ebe 858d 0c3e 2561 52be
00000060: 2128 173d 4b99 ccbc 3200 9bbe 2240 babc
00000070: a9a2 e33d 2be5 1d3e 4654 693d b262 0fbe
00000080: a09c f8bd 2a3a c63d 0177 5b3d a8be b13d
00000090: d8de 44be 69df 1cbe 91cb 6dbe 9d57 403d
000000a0: 50cc 6a3d 26da 26be 4fb5 f33c b9f0 9b3d
000000b0: 92a9 eb3c fcdf 8ebe b1ce a03d 5844 7f3d
000000c0: da85 edbd 1602 843d ec4d 963d 0165 dd3d
000000d0: 677b e5bd c94d 23be 4682 903d 6964 dcbc
000000e0: 4005 e93d b200 7fbd 0bce 7abd 0bf8 cebc
000000f0: 1bb8 99bd b826 4f3c 06db fe3d f749 353d
00000100: 4633 ea3d 9fde 233e a160 90be 6d4d 79be
00000110: 0d42 b6bd bff1 803d 0822 443d 2f26 a8ba
00000120: 23be 9cbd ab91 b7bd ceba e63c 1587 c53d
00000130: a046 173d 4c8f d3bd 8e20 6fbe 5d6f b7bc
00000140: 2460 f63d 1f4f 28bd 2f87 a43d 6ebc e33d
00000150: dc2d f7bd e846 98bd 0026 293e 7b78 17be
00000160: 1866 d33d a40e 32bd 0924 893d 614b 1fba
00000170: df85 29be 789e 9ebb 60f9 c2bd aded 5b3d
00000180: 8d38 2fbe 2042 76bc 5382 873d 306b 623d
00000190: 1109 ad3d a29b 6bbe 512b d23d 7b21 943d
000001a0: ef9a 42be 347f 3d3d 7560 febd 9b57 85be
000001b0: 814e df3d 1474 a6bd 0fa2 29bd ff2a d13d
000001c0: d9ef 88bc fa4b 943d 4b95 993d f850 913d
000001d0: bce8 2a3d 34ef 4e3d a996 efbd cae7 a83d
000001e0: 7f43 32bc f234 fe3d 318f b03d 512a fd3d
000001f0: 882c 89be 42c7 2d3e 2f6f 5dbe 2d1f f13d
00000200: f3cb 95be dbd2 a1be 7d36 5e3d d1f0 1ebe
00000210: 93e1 4cbe 9fff 7dbe 2e62 6dbe f54a ec3b
00000220: 7029 ddbe 7160 a3bd 3d76 b63d 63cc 82bd
00000230: 4c93 403d f26e 37bb d96f 763e c122 4dbe
00000240: e246 43bd 040f 7dbd b1b1 91be 18a4 47bd
00000250: 057f f23d 8be3 4e3e 0634 e43d 4938 3fbd
00000260: 2ef2 bebe 5e4d 733e 0ed8 5cbe 6526 123e
00000270: 8f83 6bbe 8f77 fabd 75b4 9b3d 33f5 053e
00000280: 7401 ac3d 11fb 8dbe 80cc abbe b98e af3d
00000290: 0fa0 9c3d 7fbf 43be 2630 99be 4a61 97be
000002a0: 0236 b5bd 5c26 96be 3f51 a9bd bf45 3dbe
000002b0: 20ea b83d a026 82be 4233 33be b4dd 913d
000002c0: c435 9a3c 5552 e53d 2d79 d23d 3a6b 8fbd
000002d0: c47b a5be c595 7abe 51c1 6bbe af1d 3b3e
000002e0: 3df0 debd 5d96 06be a011 31bd 6ea1 76bd
000002f0: 0d14 4e3c 60b8 383e d995 72bd efc9 a93d
00000300: f8ea 77bd 5474 ebbd 94f6 8fbe 37ea 7d3e
00000310: cc36 1abe e03d bd3d ad7f 58be 9503 8cbd
00000320: 39a5 b3be c3e6 183e 7b1b 79bd ca42 3d3e
00000330: 3936 b5bd 61e3 47be b283 5f3d 2a00 023e
00000340: 3bde 3fbe 9195 ccbd d584 123c a58e 70be
00000350: 9b74 ae3d b50e 59bb 2e2e adbb 312e c23d
00000360: fe6f fdbd ca7c f4bc 31f6 a6be 8753 3abc
00000370: 0fc9 c7bd c07c c2bb 1216 013e b125 e73c
00000380: 13ca 7d3e c94f 153e e264 47bd 2106 12bd
00000390: 84a4 39be 9bb4 30be 6adf a3be 0f43 84bd
000003a0: fb6a 5e3e ab46 443d 241d 91be 19c0 83bd
000003b0: 33eb 78be 5a4c 46be 4b4c 6dbd 1d3e 81be
000003c0: ca2f 183e a098 573e 0945 103d 1b17 81bd
000003d0: 30a0 8cbd 257f 21be 57ce d33d 8b9e 68be
000003e0: 8c05 43be 68d6 4ebd b9ad 963d 6109 08be
000003f0: 7bde 2e3e 9c61 fe3d af86 533d 4887 26bd
0.0668661 0.07153871 0.010366105 0.084248565 0.06567386 -0.19599088 -0.20400344 -0.060668748
-0.17057486 0.0092731705 0.10020101 0.03214932 0.011786764 -0.06482642 0.011983784 0.030948225
0.053248584 -0.10516176 -0.12059225 -0.068122506 0.071691036 -0.15451765 0.1372586 -0.2054487
0.036903504 -0.02497544 -0.30273587 -0.022735659 0.11115009 0.15419452 0.056965135 -0.14002493
-0.12139249 0.09679063 0.053580288 0.08678943 -0.19225633 -0.15319599 -0.23222186 0.046958555
0.057323754 -0.16294155 0.02974954 0.076142736 0.02876738 -0.27905262 0.07851923 0.062321037
-0.11597796 0.0644571 0.07339081 0.108102806 -0.11205178 -0.15947641 0.07056098 -0.026903348
0.113779545 -0.062256522 -0.061231654 -0.02526476 -0.075058185 0.012643509 0.12444119 0.04425999
0.11435561 0.16002892 -0.28198722 -0.24345942 -0.08899317 0.062961094 0.047884017 -0.0012828762
-0.07653453 -0.08963331 0.028165247 0.096449055 0.036932588 -0.10330066 -0.23352262 -0.02239197
0.12030056 -0.04109108 0.08033597 0.111199245 -0.12069294 -0.07435399 0.16518402 -0.14792053
0.10322207 -0.043470994 0.06696326 -0.0006076601 -0.16554974 -0.0048406683 -0.09520221 0.053693462
-0.17111416 -0.015030414 0.06616654 0.055278003 0.08448995 -0.23008588 0.10262168 0.072329484
-0.19004415 0.04626389 -0.124207415 -0.260434 0.10903645 -0.08127609 -0.041414317 0.10213279
-0.01671593 0.07241054 0.074991785 0.07095522 0.04172586 0.05052109 -0.11698658 0.08247335
-0.01088035 0.12412442 0.086210616 0.12361587 -0.26791787 0.16970542 -0.21624444 0.117735244
-0.29257163 -0.31606182 0.054251183 -0.15521552 -0.20007925 -0.24804543 -0.23181984 0.007211084
-0.43195677 -0.07977379 0.08909271 -0.0638664 0.047015473 -0.0027989713 0.24066104 -0.20032789
-0.04767502 -0.0617819 -0.2845588 -0.048740476 0.11840633 0.20203988 0.11142735 -0.046684537
-0.37294143 0.23759982 -0.21566793 0.14272459 -0.22999404 -0.12229835 0.07602779 0.13081817
0.08398715 -0.2773061 -0.3355446 0.08572144 0.07647716 -0.19116019 -0.29919547 -0.29566413
-0.08848192 -0.2932614 -0.082674496 -0.18483637 0.09029031 -0.25420094 -0.17500022 0.07122365
0.018824466 0.11197344 0.10277019 -0.07002874 -0.32320988 -0.24471195 -0.23022963 0.18273042
-0.108856656 -0.13143297 -0.0432297 -0.060212545 0.012578023 0.18039083 -0.059224937 0.08290469
-0.060526818 -0.11496797 -0.28117812 0.24796377 -0.15059966 0.09240317 -0.21142454 -0.06836621
-0.35086992 0.14931779 -0.060817223 0.1848251 -0.08848233 -0.19520332 0.054568954 0.12695375
-0.18737118 -0.09989465 0.008942802 -0.23491915 0.085183345 -0.0033120338 -0.005285046 0.094814666
-0.123748764 -0.02984466 -0.32609704 -0.0113724535 -0.09755146 -0.0059352815 0.12606075 0.028216215
0.24784116 0.14581217 -0.048680194 -0.035650376 -0.18129164 -0.17256396 -0.3200639 -0.06458103
0.21720497 0.047918957 -0.28342545 -0.06433124 -0.24308471 -0.19365063 -0.057934087 -0.252427
0.1486198 0.21054316 0.035222087 -0.06303235 -0.06866491 -0.15771158 0.103420906 -0.2271673
-0.19045085 -0.050497442 0.07357354 -0.13284828 0.17077057 0.12420961 0.051642116 -0.040656358

_CNN__dense.3.bias f4 [10]
00000000: bbd0 29be 0964 7ebe a9b2 bdbd 937e 6a3e
00000010: 427a ca3c 1c05 68be f33e 983c 6af9 8c3d
00000020: b339 dd3d 7fef 39bd
-0.1658353 -0.24842848 -0.09262592 0.22899847 0.0247165 -0.22658199 0.018584704 0.068835095
0.10802021 -0.045394417
